$ python examples/dqn_atari.py 
Using TensorFlow backend.
[2016-10-07 13:14:06,076] Making new env: Breakout-v0
____________________________________________________________________________________________________
Layer (type)                     Output Shape          Param #     Connected to                     
====================================================================================================
permute_1 (Permute)              (None, 84, 84, 4)     0           permute_input_1[0][0]            
____________________________________________________________________________________________________
convolution2d_1 (Convolution2D)  (None, 20, 20, 32)    8224        permute_1[0][0]                  
____________________________________________________________________________________________________
activation_1 (Activation)        (None, 20, 20, 32)    0           convolution2d_1[0][0]            
____________________________________________________________________________________________________
convolution2d_2 (Convolution2D)  (None, 9, 9, 64)      32832       activation_1[0][0]               
____________________________________________________________________________________________________
activation_2 (Activation)        (None, 9, 9, 64)      0           convolution2d_2[0][0]            
____________________________________________________________________________________________________
convolution2d_3 (Convolution2D)  (None, 7, 7, 64)      36928       activation_2[0][0]               
____________________________________________________________________________________________________
activation_3 (Activation)        (None, 7, 7, 64)      0           convolution2d_3[0][0]            
____________________________________________________________________________________________________
flatten_1 (Flatten)              (None, 3136)          0           activation_3[0][0]               
____________________________________________________________________________________________________
dense_1 (Dense)                  (None, 512)           1606144     flatten_1[0][0]                  
____________________________________________________________________________________________________
activation_4 (Activation)        (None, 512)           0           dense_1[0][0]                    
____________________________________________________________________________________________________
dense_2 (Dense)                  (None, 6)             3078        activation_4[0][0]               
____________________________________________________________________________________________________
activation_5 (Activation)        (None, 6)             0           dense_2[0][0]                    
====================================================================================================
Total params: 1687206
____________________________________________________________________________________________________
None
Training for 1750000 steps ...
Interval 1 (0 steps performed)
10000/10000 [==============================] - 60s - reward: 0.0062          
…
